…

2024-05-23 01:07:56,502 - INFO - ============================================================================
2024-05-23 01:07:56,502 - INFO - Model: vgg11_bn,total_epoch:35
2024-05-23 01:07:56,502 - INFO - Optimizer: Adadelta, Learning Rate: 0.01
2024-05-23 01:07:56,502 - INFO - Scheduler: StepLR, Step Size: 10, Gamma: 0.2
2024-05-23 01:07:56,502 - INFO - Model summary:
----------------------------------------------------------------
        Layer (type)               Output Shape         Param #
================================================================
            Conv2d-1           [-1, 64, 32, 32]           1,792
       BatchNorm2d-2           [-1, 64, 32, 32]             128
              ReLU-3           [-1, 64, 32, 32]               0
         MaxPool2d-4           [-1, 64, 16, 16]               0
            Conv2d-5          [-1, 128, 16, 16]          73,856
       BatchNorm2d-6          [-1, 128, 16, 16]             256
              ReLU-7          [-1, 128, 16, 16]               0
         MaxPool2d-8            [-1, 128, 8, 8]               0
            Conv2d-9            [-1, 256, 8, 8]         295,168
      BatchNorm2d-10            [-1, 256, 8, 8]             512
             ReLU-11            [-1, 256, 8, 8]               0
           Conv2d-12            [-1, 256, 8, 8]         590,080
      BatchNorm2d-13            [-1, 256, 8, 8]             512
             ReLU-14            [-1, 256, 8, 8]               0
        MaxPool2d-15            [-1, 256, 4, 4]               0
           Conv2d-16            [-1, 512, 4, 4]       1,180,160
      BatchNorm2d-17            [-1, 512, 4, 4]           1,024
             ReLU-18            [-1, 512, 4, 4]               0
           Conv2d-19            [-1, 512, 4, 4]       2,359,808
      BatchNorm2d-20            [-1, 512, 4, 4]           1,024
             ReLU-21            [-1, 512, 4, 4]               0
        MaxPool2d-22            [-1, 512, 2, 2]               0
           Conv2d-23            [-1, 512, 2, 2]       2,359,808
      BatchNorm2d-24            [-1, 512, 2, 2]           1,024
             ReLU-25            [-1, 512, 2, 2]               0
           Conv2d-26            [-1, 512, 2, 2]       2,359,808
      BatchNorm2d-27            [-1, 512, 2, 2]           1,024
             ReLU-28            [-1, 512, 2, 2]               0
        MaxPool2d-29            [-1, 512, 1, 1]               0
AdaptiveAvgPool2d-30            [-1, 512, 7, 7]               0
           Linear-31                 [-1, 4096]     102,764,544
             ReLU-32                 [-1, 4096]               0
          Dropout-33                 [-1, 4096]               0
           Linear-34                 [-1, 4096]      16,781,312
             ReLU-35                 [-1, 4096]               0
          Dropout-36                 [-1, 4096]               0
           Linear-37                  [-1, 100]         409,700
              VGG-38                  [-1, 100]               0
================================================================
Total params: 129,181,540
Trainable params: 129,181,540
Non-trainable params: 0
----------------------------------------------------------------
Input size (MB): 0.01
Forward/backward pass size (MB): 4.09
Params size (MB): 492.79
Estimated Total Size (MB): 496.89
----------------------------------------------------------------

2024-05-23 01:18:01,359 - INFO - ============================================================================
…
